VWW/model/model-float32.tflite (tflite, 548824 bytes, 105 tensors)

model/mobilenetv2_0.35_96/block_3_project/Conv2D f4 [16, 1, 1, 48]
00000000: a85c fdbe 64d8 a5bd 975d 36bf 5fc8 953e
00000010: e2ef 423f 5029 8abd 0711 743d 8e1d 5340
00000020: 78a3 ccbf c581 003f fe91 a93f 3157 45be
00000030: d441 0a3f 6f9d 02bf 1486 d4be 3c26 e63e
00000040: a6a3 eb3e 43ef d3be c788 82be ae68 0ebe
00000050: 53c0 0140 f5a3 60be e8e9 283f c60f 8040
00000060: 35c6 00bf bd16 2f40 2a0c 14be 7593 e0be
00000070: 89ab 523f 3502 febe 3372 483f 6e26 4bbf
00000080: 61ac 0abf f3d0 d13f 7f55 1e3f a924 c2bf
00000090: 228b fc3e 16f7 bf3f 8879 113f 7212 c6be
000000a0: c53c 59c0 cf3e 4ebf 3ffe 233f fd38 af3f
000000b0: d1ae 903f 5a93 583f 9239 7bc0 199a cbbf
000000c0: fdf2 aebf da93 e9be 93ab 463f 1aa5 003f
000000d0: c6fc 97bf c94f cd3e b8c2 583d abc8 0340
000000e0: 6165 01c0 df06 a1bf d541 603e f786 cdbf
000000f0: 311b 4abf 24ec 23bf 8374 4bbc 247c d7bd
00000100: 5303 67bf 5b8f 8b40 13bf bebe d467 263f
00000110: ad34 9d3e aa56 9c3e b521 81bf f118 1abf
00000120: ae9e 6d3f 9362 c8bf b438 233f f18d 613f
00000130: fceb 72bf e78a 48c0 8a04 b1bf 00ea 3f3f
00000140: 7806 43bf 7bb6 33be 9325 953f 4f79 b6bd
00000150: 8991 03be d661 c1bf dfaa 6b3d acca 1d3f
00000160: ad1a 32bf 4efb 91bf cb63 9440 f65a e33e
00000170: 6953 c33e 7125 22bd c1cc 543f f476 e1be
00000180: e040 80bf 4ea2 aebe 043e 1fbf ac83 ddbf
00000190: e77b c2bd 1eae 49c0 c294 833e 3296 82bf
000001a0: 90cb c83c 9beb 1a3f ee21 403f cb89 9f3f
000001b0: e43d 3d3f b010 353f 0c71 23bf af5f be3e
000001c0: c9a8 41be 5adc 75bf fa93 97bf 85e8 20bf
000001d0: 8fbb 51be 962a eabc 3b4e 37bd e2e6 c3c0
000001e0: e007 1dbf b56a 6440 a782 37bf 8cd9 3e3e
000001f0: adf8 12bd de35 73bf 0ad5 fdbd b609 90be
00000200: b661 a2be f15b 2540 96b6 033f 351b 78bd
00000210: 3cc0 893f aacd 093f 5270 a13f 510a 2a3d
00000220: 131a f5bf 38a7 1f3e 2f67 68bf 4fbf 91be
00000230: 01c0 f5bc 31df f8be 19ba 353f d95a c73e
00000240: 4d7c a3be 5390 b53f 927d b43d 3622 a9bf
00000250: a5f1 16bd ecbd 443c 045a d43d 82c3 32be
00000260: 03a6 56bf 8a69 06be c89c a23c 199a d43f
00000270: 70b9 b1c0 4d79 7d3e 722c 73be 1f0b d4bd
00000280: a1b5 313d a240 503e 729a 4abf b700 9dbd
00000290: 7462 a9bf 8d06 b53e a297 813e 304f 303f
000002a0: 0426 99be 0454 febe 3e5c 163e b68e 863f
000002b0: 55d9 d0be 6371 4e3f d7f7 393e dcf3 393f
000002c0: ba67 363e 8401 423d 9352 393f a60c 533f
000002d0: 2a09 debe d88e 913f ba9e e53f a855 2f3e
000002e0: 5bb9 ea3e 6171 813e 6862 813f 6d74 a1bf
000002f0: 2294 b83e b45c 62be 8a09 393e eef5 503f
00000300: 6104 b63f 3f9f a1bf e511 b23e f13f da3e
00000310: 7156 483f 812e 8d3f 7929 6b3f 8b52 71bf
00000320: 710f 98bf 1112 083e c882 f5be 7a78 3fbf
00000330: f237 f93c d9b1 f03e c3aa 643d 2adb 213f
00000340: 185a 573f 5755 9ebe da15 49c0 7b7b 033e
00000350: 2be7 3cbe 5a68 e43e 3da1 103f 9056 3740
00000360: e198 f53c c6d1 88bf 3995 683e f75a f63f
00000370: 646a ae3e cae2 3cc0 efb8 403f 9894 903e
00000380: 3773 073f 5e3d b1bf 425f a23f b0c1 a1c0
00000390: 8367 eb3e 7106 b83f 82bb 74bd f6d0 333f
000003a0: 6915 3fbf 0046 3b3f 59f5 a83e 079a 69bf
000003b0: 48bb d6be 30d4 47bf 80c3 b93e 1464 6d3e
000003c0: 41e0 aa3f 66d2 323d 227c 64bf 3605 2340
000003d0: 98c6 4dbc 1cdb a0be 3c8b 9c3e 2a95 883f
000003e0: 3638 923d 7f63 22be 7026 e23f 1db2 ba3e
000003f0: 8788 093e 45b9 1140 ec8b b73d a6dc 6e3d
-0.49484754 -0.08097914 -0.71236557 0.29254434 0.7614728 -0.06746161 0.05958655 3.2986789
-1.5987387 0.5019801 1.3247678 -0.19271542 0.54006696 -0.51021475 -0.41508543 0.44951046
0.4602329 -0.4139348 -0.25494978 -0.1390712 2.0273635 -0.21937545 0.6598191 4.0019255
-0.5030244 2.7357628 -0.14457765 -0.438625 0.8229299 -0.4961106 0.78299254 -0.79355514
-0.5416928 1.6391891 0.61849207 -1.5167438 0.493249 1.499728 0.56826067 -0.38685948
-3.394334 -0.8056459 0.64059824 1.3689266 1.130335 0.8459984 -3.9253888 -1.5906402
-1.3667904 -0.45620614 0.7760555 0.50251925 -1.1874015 0.40099934 0.052920073 2.0591228
-2.0218127 -1.2580222 0.21900113 -1.6056813 -0.7894774 -0.64032197 -0.012417915 -0.10521725
-0.9023945 4.3612494 -0.37255153 0.6500218 0.3070425 0.3053487 -1.0088412 -0.6019431
0.9282025 -1.5655082 0.637584 0.8810721 -0.94891334 -3.133478 -1.382951 0.7496643
-0.76181746 -0.1755008 1.1652092 -0.089098565 -0.12848486 -1.5107982 0.057536002 0.6163738
-0.69571954 -1.1404817 4.6371818 0.44405335 0.38149574 -0.03958649 0.8312493 -0.44036067
-1.0019798 -0.34108204 -0.62204003 -1.7305808 -0.09496289 -3.1512523 0.2569943 -1.0202086
0.024511129 0.60515755 0.7505177 1.2463926 0.7392256 0.7072859 -0.6384437 0.37182376
-0.18912043 -0.96039355 -1.1842034 -0.62854797 -0.20481704 -0.02858476 -0.04475234 -6.121934
-0.6134014 3.5690129 -0.71683735 0.18637675 -0.035881687 -0.9500407 -0.123941496 -0.2813241
-0.31715173 2.5837367 0.5145048 -0.06057282 1.076179 0.53829443 1.2612402 0.041513745
-1.9148582 0.15591133 -0.90782446 -0.2846627 -0.029998781 -0.48607782 0.7098709 0.389365
-0.3193077 1.4184669 0.08813013 -1.3213565 -0.036851544 0.0120081715 0.103687316 -0.17457393
-0.83847064 -0.13126197 0.01985015 1.6609527 -5.5538864 0.24753304 -0.23747423 -0.10353684
0.043386105 0.20337155 -0.79141915 -0.07666152 -1.323317 0.3535656 0.25311 0.6887083
-0.29911816 -0.49673474 0.14683625 1.0512302 -0.4079081 0.80641764 0.1816095 0.72637725
0.17813006 0.047364727 0.72391623 0.82441175 -0.43366367 1.1371717 1.7939065 0.17122519
0.4584454 0.25281814 1.0108156 -1.2613655 0.36050516 -0.22105676 0.18070045 0.8162526
1.4220086 -1.2626723 0.34779277 0.42626908 0.782569 1.1029817 0.9186016 -0.94266576
-1.1879712 0.13288142 -0.4795134 -0.7479321 0.030422185 0.47010687 0.055826914 0.6322504
0.8412185 -0.30924484 -3.1419587 0.12840073 -0.18447559 0.44610864 0.5649603 2.8646584
0.029980125 -1.0689018 0.22713174 1.924651 0.34065545 -2.951342 0.75282186 0.28238368
0.5291018 -1.3846853 1.268532 -5.0548935 0.4597741 1.4376966 -0.059749134 0.70240724
-0.74642044 0.73153687 0.32999685 -0.9125065 -0.4193976 -0.7805815 0.36281967 0.23182708
1.3349687 0.043657683 -0.8925191 2.547193 -0.0125595555 -0.31417167 0.30574977 1.0670521
0.07139628 -0.15858267 1.766798 0.36464015 0.13430987 2.276933 0.08962235 0.058315895

model/mobilenetv2_0.35_96/block_3_expand/Conv2D f4 [48, 1, 1, 8]
00000000: cd41 b3bd 23cf 0436 f2db c0ba e152 503d
00000010: 964f c9bc 3fa8 e93c eecf 8a3c a382 a9bc
00000020: cde3 393d 0d70 e73d c409 943d cf6e 033d
00000030: 1e1f ca3c b345 86bd dcaa 243e 9226 493e
00000040: 5308 a7bc 7bf7 26ba a6e2 573a 9a8e a5b9
00000050: 3b61 85bd 6827 e1bb 6f1a c23b 0f48 c23a
00000060: b25f 5b3d 8bb7 dbba 90c2 dcbb 8eaf 87bd
00000070: f5d4 8bbd 9fce 193c ba74 9b3c ab0b 22bc
00000080: 1ee4 64bd c553 a33c ec12 e0bb 9f92 95bb
00000090: d154 fe3c cf59 bbbb 484a a33c 5ced 163c
000000a0: 8032 4bbd bf64 58bc 8f91 253c b99b 95bb
000000b0: 0a95 7cbd c381 833b e6e4 923b ff56 293d
000000c0: ec5b 5fbc 3eec e0bd 484a b43c 2255 71bc
000000d0: b8c6 393c c66e 383b a311 18bb dd86 ec3c
000000e0: 062d e9bc 0002 edba 68ab ad3a 7c6c 343d
000000f0: 789c 613d c6eb 6bbc 4f36 79bc 9db8 313b
00000100: 44b4 503d 4f99 273b 7691 c63a 7c56 b3bd
00000110: 6d83 16b8 fca2 83bc ec03 fcbc 274e bfbc
00000120: f666 04bc 5470 40be 84cf 3dbc 460f e6bb
00000130: 1954 873b 3f9b 023e 74ad 9dbd 1dbf 013e
00000140: 45c8 27be 4df4 1cbc dfeb 0bbb 6956 1f3d
00000150: c8be 62be bc93 fe3d 7b5f e03d 1228 e9bc
00000160: d8d7 823d 0cff b73b 2dfb b53c 13e2 ef3b
00000170: 9ce4 04bd 9c14 c8bc b57a 95bc b0fc 8fbd
00000180: a469 58b9 c5e4 2b3c 4322 fe3c 8b1a a6bb
00000190: 115a f53b 76bf 6abd 4a42 c03d f777 3e3d
000001a0: 215e ae3d 7e05 0ebd d803 0abc f3b2 93bc
000001b0: 4687 243e 71b9 263e 11e0 1c3e 726a 60bd
000001c0: 41a3 0a3d b694 773c 08cb 5abb 9a87 a23b
000001d0: d139 ddbc e3e9 a2bb a96a ecbb bde9 a8bb
000001e0: 58e6 40bc 4a22 cfbd 19f1 4a3c e194 2ebc
000001f0: ed9f 533b 41a3 3d3b 42c5 863b 14b4 e73c
00000200: f084 d7bc 8507 f4bb 13a1 023b 8bde 3bba
00000210: cb8c 83bd bf14 35b8 a323 e43b cd52 003b
00000220: 7c74 96bc 47a8 923d 0ccc a3bd 27e5 0e3b
00000230: 9373 083c 131b b5bd 4e1f 9a3d 0889 79bd
00000240: a2d4 643d b290 46bc f567 9bbc 1a22 cb3b
00000250: 76c8 d6bc 6b93 3e3c e83c a53b e81a 383d
00000260: 2e6e 8a3d bb7f d9bc 3b97 37bc f2b2 4cbb
00000270: 5e55 ce3c 9494 64b8 9ba8 8c3c de7a 763b
00000280: e3c0 a43d cf13 743c 83c7 2dbc 83fb 9c3d
00000290: 122f beba 2954 b53c b4b7 a83a 3cc2 12bd
000002a0: 11e4 6d3b 95ed 623c a06a dabc 5a07 1b3b
000002b0: 0984 27bc 4195 223d 103d 64bd c206 1bbd
000002c0: 936e b4bd 53bf 783c a42b aa3c 284a 65bb
000002d0: 6434 bcbc 9120 673a eed8 13bd c311 90bc
000002e0: aa54 43bc 8326 8dbc dc23 ec39 8515 d93b
000002f0: abde 1bbd c01d 9b3c 56e5 ba3c f58a 9fbb
00000300: 6b49 8b3d fdf7 84bb 16d3 b3bb 1d1f 54bb
00000310: defc 41bd 4de8 a2bb 8884 463a dd3e a03b
00000320: d6cd 533c a491 f4bb 79c3 ab39 10d2 5cbc
00000330: 6e4e 8f3d f0d1 e93c 9b4c e63c ce4f 96bc
00000340: fc62 46b9 b103 96be 414c 5f3c 6031 e8bd
00000350: 5569 813c a4f5 bfbe ef4f 733e 1b51 1bbe
00000360: 21e6 4dbc af18 bbbd 06b8 933c 06f7 23bc
00000370: 27f7 12bb f400 25bd ff1e bc3c 29ca b9bb
00000380: 1e24 1bbd 6e23 613c 551b 26bc f175 b73b
00000390: 6e52 bbbb 3c17 32bc a100 473d e5f5 173d
000003a0: dd6c 2cbc 1f39 103d c2bc 463c 62b8 8f3b
000003b0: 6c7c 89b9 8b12 0a3d 346e acbd 09ed d4bd
000003c0: 649c 873d d770 84bc 04d2 82ba edd4 8f3b
000003d0: 5aae 2dbd 6e68 d33a 1571 c0bc 9d13 3cbc
000003e0: cf85 7ebb 70ea 2dbc 82c0 cc3c 9fdf cdbb
000003f0: acc7 e33b b3da 35bd fcd0 493d 2852 d93c
-0.08752785 1.9790102e-06 -0.0014713986 0.05086029 -0.024574082 0.028522609 0.016944852 -0.020692175
0.045383263 0.11300669 0.07228425 0.032088097 0.024673041 -0.06556263 0.16080803 0.1964362
-0.020389711 -0.0006369275 0.00082353724 -0.000315775 -0.06512686 -0.0068711527 0.0059235613 0.00148225
0.05355806 -0.0016763074 -0.006737061 -0.06625281 -0.06827728 0.009387641 0.018976558 -0.009890477
-0.055881612 0.019937405 -0.006838193 -0.0045645977 0.031046303 -0.005717493 0.019932881 0.009211864
-0.049608707 -0.0132076135 0.010105505 -0.0045656827 -0.061665572 0.0040132715 0.004482853 0.04134273
-0.013632756 -0.109825596 0.022008076 -0.01472977 0.011338882 0.0028142198 -0.0023203872 0.028872902
-0.028463852 -0.0018082261 0.0013249936 0.04404877 0.05508086 -0.0143994745 -0.015210702 0.0027118095
0.050953165 0.0025573557 0.0015149552 -0.0875673 -3.5885187e-05 -0.016068928 -0.030763589 -0.023352696
-0.008081188 -0.1879285 -0.01158512 -0.0070208637 0.0041298983 0.12754534 -0.07699099 0.1267056
-0.1638499 -0.00957973 -0.0021350307 0.038900767 -0.2214309 0.12430522 0.109557115 -0.02846149
0.06388825 0.0056151208 0.022214497 0.0073206513 -0.03244458 -0.02442389 -0.018246988 -0.07030618
-0.0002063872 0.010491555 0.031022197 -0.005069082 0.0074875434 -0.057311498 0.09387644 0.046501126
0.085140474 -0.034673207 -0.008423768 -0.018029666 0.16067228 0.16281678 0.1531985 -0.054789014
0.033847097 0.015111139 -0.0033385176 0.0049600126 -0.027005108 -0.004971729 -0.0072148633 -0.005154817
-0.011773668 -0.10113962 0.012386584 -0.010655613 0.0032291368 0.0028936418 0.0041128704 0.02828411
-0.026308507 -0.0074471855 0.0019932433 -0.00071666454 -0.064233385 -4.3173084e-05 0.006962256 0.0019580603
-0.018366091 0.071610026 -0.07997903 0.0021804066 0.008328336 -0.088430546 0.07525502 -0.0609217
0.055866845 -0.012119459 -0.018970469 0.0061991336 -0.026218634 0.011631827 0.005042661 0.044947535
0.06759296 -0.026550164 -0.01120549 -0.003123459 0.02518719 -5.449781e-05 0.017170241 0.0037609856
0.08044603 0.014897301 -0.010606649 0.076651596 -0.0014509878 0.022134857 0.0012872131 -0.035829768
0.0036299268 0.013850589 -0.02666217 0.0023655505 -0.010224351 0.03969312 -0.055722296 -0.03784824
-0.08810153 0.015182334 0.020772763 -0.0034986828 -0.0229742 0.00088168035 -0.036095552 -0.017586594
-0.011922041 -0.017230278 0.00045040145 0.00662488 -0.03805415 0.018935084 0.022814434 -0.00486886
0.06801113 -0.004057883 -0.00548781 -0.0032367178 -0.047360294 -0.00497154 0.0007572849 0.0048903064
0.012927493 -0.007463651 0.000327613 -0.013477817 0.06997381 0.028542489 0.0281127 -0.0183486
-0.00018919626 -0.2929969 0.01362902 -0.113375425 0.015797297 -0.37492096 0.23760961 -0.15167658
-0.012567074 -0.091355674 0.018032085 -0.010007625 -0.0022425146 -0.040284112 0.022963999 -0.0056698513
-0.03787624 0.013741357 -0.010138352 0.0055987765 -0.0057166135 -0.010869797 0.048584584 0.037099738
-0.010524002 0.035210725 0.012129964 0.004385994 -0.00026223378 0.03370909 -0.08419457 -0.10396773
0.06621626 -0.016167087 -0.0009980802 0.0043893964 -0.042402603 0.0016129145 -0.023491422 -0.011479286
-0.003883708 -0.010614976 0.024994139 -0.006282761 0.006951293 -0.04439802 0.04927157 0.026528433

model/mobilenetv2_0.35_96/block_2_project/Conv2D f4 [8, 1, 1, 48]
00000000: 8298 7cbf 7d75 63be e4b9 29bf f662 963e
00000010: 3f3c d23d 6c9c efbe 2968 453b 0de7 f33c
00000020: 7649 09c0 e389 1640 c1e2 36bf bf4f 0840
00000030: b0ed 0a40 48b8 0c3e 433d ab3f a9da b6be
00000040: 7983 05be db3d 1dbf d33c 003e f29b 9a3d
00000050: 1a11 1abe 5909 d2bd 9c7f d3be 26a3 23bf
00000060: 465e de3e 829e e1bf 28a0 433e 66af 9a3f
00000070: d95f 69be 6b02 473e f0a2 b13e 68e3 32bf
00000080: 3be3 58bd ecfb b8bf e352 0040 ea78 b93e
00000090: afc7 44bd 14ad e1bd efad d4bd 4917 a9be
000000a0: 1e3e 0940 5664 92bd 8f9e 5f3f 235e e4be
000000b0: 8f2e 13bf de79 eb3e 78fa a2be b35e afbe
000000c0: 9f07 41bd 54c8 903f 5cd9 8a40 61ff 353e
000000d0: 4aaa 1ebe 48c6 55bf 0be0 363d 1086 35c0
000000e0: 5376 7a3f 6fc3 40bd f6ff 413f 7b44 413e
000000f0: cc40 32bf 4078 6f3e 3f02 43be 465c 81c0
00000100: 51c8 b33e 9749 efbf 1cdc 9a3e 5cf1 1e3e
00000110: 80b8 61bf bf4a 8d3f c9ea 4d3f 13ba 95bf
00000120: e373 1cbf 66be 8bbe e648 f13e 4864 053d
00000130: c3bc c93e f6b6 39be fab1 da3e 3ad1 3ebd
00000140: fef1 20be fcff d73e d539 0b3f e009 d93e
00000150: 94e8 d1be c571 91bf fa62 0e40 864d f9bf
00000160: 9949 c33e f56c 9e3f 0d6d b8be 264c 603f
00000170: b901 febe 8776 933e e275 583f 0dc0 43bd
00000180: 98a4 a43e 31d6 4fc0 f35e 8f3f cb50 35c0
00000190: f2e1 0c40 978e e23f 4d81 d3be 1034 f7bf
000001a0: 7a75 db3e db70 5cbd 8c98 20be cd43 6c3f
000001b0: 8763 2cbf 1098 7740 d974 be3e 9750 abbd
000001c0: a769 20c0 6e6e 0641 ebd9 d2bf db7d 11c0
000001d0: 1b3a 81bf 617e bc3f 01c0 22c0 9be5 20bf
000001e0: 0bbe 0041 bf0c e43d 0f59 e2bc 18c8 e1be
000001f0: dc34 f4bf a575 10bf 4a45 123e 8ba2 2cc0
00000200: 730f 0fbf f685 74bf 2025 373d 948f 2e3f
00000210: d7e7 27bf 9d4d f4bd 3a53 66bf 32b2 f63e
00000220: f597 863f 4934 a9bf e576 9dbf 8b42 b1bc
00000230: 2cca ed3d 269b d93f e26c d2bf 9645 27c0
00000240: 6065 603d c1fc bbc0 acdf 1dbe cf70 033f
00000250: 5397 693e cf51 c4be 022c 34bf 4459 ddbd
00000260: d88b fcbe e49f 54bf 4f0d 943f 0a31 b43f
00000270: f61e 5d3f a467 1abf 0aca 5340 889a 093e
00000280: 8284 17bf 03b2 b6bf caaf 693e b2df c23f
00000290: c586 d2be 8f38 b03f ac7b c5bf dc06 593e
000002a0: 8f01 cb3e 592d 6340 87bc 333d 9eaf ea3e
000002b0: 3f2e 01bf 3b29 a83e 5d73 0941 cc99 0f3d
000002c0: 156c 4d3f 3c5b fe3e 0a18 4ebe 7f4c 1bbd
000002d0: 63c7 b5bf 6405 77bf 4955 00bf 1945 4e3f
000002e0: 419d 1dbf 43eb cf3e f91b 24bf 8f7a ea3f
000002f0: 1bd3 fcbe 2fc8 5f3d 9fce 48bd a496 1340
00000300: 149a 55c0 40a1 763e 48ac 993b 1110 553d
00000310: 1485 353c 510a a5bf 46ff c23c 5e2a 703e
00000320: 56e1 ad3f cba3 a0bf 5e94 2d3f 3f5d 18bf
00000330: 81af 8abf 3dbf 283d 6233 d7be f5f9 9bbe
00000340: 4447 a13d 2b44 6a3e 594c 8f3c 8440 583f
00000350: 32d7 9c3e e616 73bf 0c72 ec3e e959 b63d
00000360: a108 58be 13c0 c23f 835b 493e 7213 6c40
00000370: a044 873d 8136 0c3d 0290 64be 35fa 84bf
00000380: 620a 6ebc c7bb 89c0 e090 86bf 8d32 be3e
00000390: 37c3 c33d 90db 4dbe e808 573d 3cba 0e3d
000003a0: 7690 dabf 08ba 3ebe d36f c5be 082c 0f3f
000003b0: 0e7d f7bf 5ce5 ed3d b372 483e beb8 583e
000003c0: 3171 28bf 13db 343f 9cb5 1c3f 0bc4 3a3e
000003d0: d57c a5bf cd48 983e 707d adbd ec4e a33f
000003e0: 573c 153f aace e93d 706c bd3e 82f0 3b3e
000003f0: 3bba 10be ae0d 9dbf 0e9e 4f3e 98c2 753f
-0.9867021 -0.22212787 -0.6629927 0.29372376 0.10265397 -0.46799028 0.0030121899 0.02977326
-2.1451087 2.352166 -0.7143975 2.1298673 2.1707573 0.13742173 1.337807 -0.357137
-0.13038434 -0.6142251 0.12523203 0.075492755 -0.15045586 -0.10255689 -0.41308296 -0.6392082
0.434313 -1.7626498 0.19104064 1.2084777 -0.22790469 0.19434516 0.34694624 -0.69878244
-0.05295108 -1.445188 2.005059 0.36225063 -0.048041996 -0.1101934 -0.10384738 -0.33025578
2.1444163 -0.07148044 0.87351316 -0.4460307 -0.5749292 0.45991415 -0.31831717 -0.34251937
-0.04712641 1.1311135 4.339033 0.177732 -0.15494648 -0.8350568 0.044647258 -2.8363075
0.978368 -0.04706138 0.7578119 0.1887378 -0.6963012 0.23385715 -0.19043826 -4.042514
0.35113767 -1.8694333 0.30246055 0.15521759 -0.8817215 1.1038436 0.8043638 -1.169741
-0.6111433 -0.272937 0.4712593 0.03256634 0.39401826 -0.181362 0.4271391 -0.046586253
-0.15717313 0.42187488 0.5438512 0.42390347 -0.40997756 -1.1362845 2.224791 -1.9476783
0.38142088 1.2377001 -0.360207 0.87616193 -0.4961069 0.28801367 0.84554875 -0.047790576
0.32156825 -3.2474482 1.1200851 -2.8330562 2.2012906 1.7699765 -0.41309586 -1.9312763
0.42863065 -0.053818565 -0.15683192 0.92290956 -0.67339367 3.8686562 0.37198523 -0.08364981
-2.5064485 8.40196 -1.6472753 -2.2733066 -1.0095857 1.4726068 -2.542969 -0.6285035
8.046397 0.111352436 -0.027630357 -0.44097972 -1.9078631 -0.5642951 0.14284244 -2.6974208
-0.5588295 -0.9551691 0.04471314 0.6818783 -0.65588135 -0.11928866 -0.89970744 0.48182827
1.0515124 -1.3219081 -1.2301909 -0.021638175 0.11610827 1.7000473 -1.6439478 -2.6136222
0.05478418 -5.8746037 -0.15417355 0.5134401 0.22811632 -0.38343665 -0.7037965 -0.10808042
-0.49325442 -0.83056474 1.1566561 1.4077466 0.8637537 -0.60314393 3.3092065 0.13437855
-0.59186566 -1.4273075 0.22820964 1.5224516 -0.41118446 1.376726 -1.5428367 0.21194023
0.39649627 3.5496428 0.043880966 0.4583711 -0.5046119 0.32843956 8.590665 0.03505878
0.80243045 0.4967898 -0.20126358 -0.03791475 -1.4201473 -0.964926 -0.50130135 0.80574185
-0.61568075 0.40609178 -0.6410518 1.8318652 -0.4937981 0.05463427 -0.049025174 2.3060694
-3.3375292 0.2408495 0.004689727 0.052017275 0.011079092 -1.2893773 0.023803364 0.23453662
1.3584392 -1.2549986 0.67804515 -0.5951728 -1.083481 0.041198004 -0.4203139 -0.3046414
0.07874921 0.22877567 0.01749246 0.84473443 0.3063293 -0.94956815 0.4618076 0.08903868
-0.21097042 1.5214866 0.19663815 3.6886868 0.06604886 0.034231666 -0.2232056 -1.0388857
-0.014528843 -4.304172 -1.0512962 0.37147942 0.09558719 -0.20103288 0.052498728 0.034845576
-1.7075336 -0.18625653 -0.38561878 0.5592656 -1.9335039 0.116160125 0.19575004 0.21164224
-0.65797716 0.7064678 0.61214614 0.18238847 -1.2928721 0.29743043 -0.08471191 1.275846
0.58295196 0.11416371 0.36996794 0.18353465 -0.14133541 -1.22698 0.20275137 0.9600005

model/mobilenetv2_0.35_96/block_2_expand/Conv2D f4 [48, 1, 1, 8]
00000000: 49e4 703c 5bec b83b f75c 90b9 f210 bdba
00000010: 1876 c73c 0e3b a23b 9985 15bc 0fdb 98bb
00000020: 743c 8ebb 857e c2ba 3717 c23a c65a c53d
00000030: baab e13b bb5a 90bb a948 9c3b 4afc 393c
00000040: ead7 823c 4db1 96bd b060 32bc cfe7 bd3c
00000050: 7ee7 56bb 4b79 1dbd 6723 383d c8ae ea3b
00000060: 24bc 033e 5c7a 01bd 0fb4 02bc cc02 863c
00000070: 4fe0 1dbc 33fe 0cbd fc7f f13c 3ab8 d23b
00000080: 1f79 003d b877 21be cff7 db3e b6bf 27bd
00000090: 10fe 0ebd 9247 24be eda9 283d abe7 a1be
000000a0: a90b ae3d 4367 353b 011d 083b 7040 8fbb
000000b0: ea64 233e 01d3 933c 83b2 48bc a50b 38ba
000000c0: ef1d 0bbd 3d08 5a3e 4e5d f5bc 9b7f 953e
000000d0: ffa6 763d 6c9b ed3d ddde 28be 20a1 fdbd
000000e0: 659d 83bc bb7b b63e 3794 20bc beda e43b
000000f0: 2ea0 353a aabb 1abd 7516 2b3d 0f3c bcbb
00000100: d1fe 443e e44d 9c3d 84a8 cfbb af76 153c
00000110: b18d 9cbd bb2c 0dbd 1aab 50ba 7923 63bd
00000120: be7b 3cbe 9c81 a33c 5fcf 123c 6417 ea3c
00000130: 2330 9c3d a46a 753c d901 39bc 2504 1b3b
00000140: 724c f5bd a91d 5abc acda b43c 2af8 593e
00000150: 7497 853d d13a 3d3d 723f d4bc e8f6 9cbb
00000160: 7c80 1abe 9e16 4e3a 983e 643c 2c19 9cbd
00000170: 4880 243d c65e 013c 36f8 d8bc 3af8 5cbd
00000180: 7d23 2b3e 2864 043d 73c1 273b ec5d af3c
00000190: 8721 79bd 34cf 82bc fe38 c13b d394 70bd
000001a0: e733 73bc 04b9 cd3d 1c0c 2abe c53f 2abc
000001b0: c979 d53b 0977 073e 381c c1bd e83b c73d
000001c0: 9f2b 8bbd 9328 16bd edb8 92bc ac71 343e
000001d0: 27e0 ea3c 0c36 5a3c 1a7e 00bc 1202 0dbd
000001e0: 0a9c 6abc 349e 0e3f b9fc e23b 764c 5fbc
000001f0: bce7 d4ba d04c 86bd 589c 373d a350 62be
00000200: e0a6 09bc 59a1 bfbd 55c4 76bc c906 363b
00000210: f5ff cfbb 4c48 a9bd be26 b03d 576c abbc
00000220: a1c9 893c 21ec df3d 7d58 813a bf3a 2abc
00000230: 86da a63b 6566 883d 7ff9 97bd 4f02 83bc
00000240: ed2c 19bd 30f3 523e d8eb 19bf e4ae 93bb
00000250: 468e 1b3d 57ab 833e cbd7 1bbe 6698 973e
00000260: 70f2 9abc 5864 943b 7060 093a 820c 9239
00000270: 61f9 04bd 1c08 313a 64ee b43b fe32 d53b
00000280: 8cae b1bd 59ba 7ebc f65d 08ba 01fe f539
00000290: fa0b 513d 6c44 a6bc 6794 e83c 1415 043a
000002a0: 104a 6bbd 4306 1cbb feb4 f6ba ac0a ba3a
000002b0: b6de e8bd 885a 65bb af6a 863c 40be b13b
000002c0: 6514 14be 3911 e6bc 3142 5738 c18c 52bb
000002d0: c605 c73d 922b 91bc f855 283d 39ca 693d
000002e0: 60e3 46bd b9a3 69bd 80ab 84bc e1ba 9ebc
000002f0: f84d a7bb a3e8 473e 8664 9abe 1952 5bbe
00000300: e99c e0bb 3936 083d 5bab d5bd 0449 253b
00000310: 5470 f33b 0f7f 1e3d c387 7dbc 5449 7e3d
00000320: a0ac 623d d322 abbc 219b 2aba ca5d 913d
00000330: 0fe4 2bbd 74f5 dcbb 21e5 b53b 2ea0 e0bc
00000340: 806b 9f3a c860 00bc 58fa 96ba 28f6 8939
00000350: 62d2 6bbb 661c 3e3d 59fe 473d 54e5 34bc
00000360: 0913 873d a9f0 f8bb d541 14bb 1ab9 443c
00000370: 32a2 f53d 3fc3 db3c 40e6 073d 5fa6 96bc
00000380: ca88 3db9 95b0 7d3e 6da4 09be 5421 1a3c
00000390: b0c5 363c 657d 213e 7535 70bd 998b 753e
000003a0: 5910 99bc f7eb ed3c 2cc6 32bc 84df 9cbc
000003b0: 0b42 72bb 09a3 583e dd8e 9bbe 6e89 50be
000003c0: 3285 963b 5a1d e2bb 8fe8 3b3a 3ac9 2bbe
000003d0: 824c f9bb 9066 eb39 342f 8abb 44a3 91bc
000003e0: 8b37 84bd f3ef 803b 3806 353b 8eba 033b
000003f0: 4c51 fdbd a395 043c 4cfa 503c 3c29 a138
0.014702865 0.00564341 -0.00027535085 -0.0014424606 0.024348304 0.0049508875 -0.00912609 -0.0046647857
-0.0043407027 -0.0014838731 0.0014807944 0.09636454 0.0068869265 -0.004405347 0.004769404 0.011351654
0.015972096 -0.07358036 -0.01088731 0.023181824 -0.0032791789 -0.038445752 0.044955637 0.007161949
0.12864739 -0.03161083 -0.0079775 0.016358756 -0.009635999 -0.03442211 0.029479973 0.006430653
0.03136551 -0.15768325 0.429625 -0.040954314 -0.03491026 -0.16042927 0.04117768 -0.3162206
0.08498318 0.0027679957 0.002076924 -0.004371695 0.15956464 0.01804495 -0.012249592 -0.0007020778
-0.033964094 0.21292205 -0.029951718 0.29198918 0.060217854 0.1160191 -0.16491266 -0.12384248
-0.016066262 0.35641274 -0.009800962 0.006984084 0.00069284707 -0.037776627 0.041769464 -0.005744464
0.1923783 0.07632044 -0.0063372273 0.009122535 -0.07644213 -0.034466486 -0.00079600664 -0.05545375
-0.18406579 0.019959264 0.008960574 0.028575607 0.07626369 0.014979038 -0.011291944 0.0023653593
-0.119774714 -0.013312736 0.022076927 0.21286073 0.06523028 0.04619867 -0.02590916 -0.0047901757
-0.15088075 0.00078616466 0.013930939 -0.07621989 0.0401614 0.007896131 -0.026485544 -0.053947665
0.16712756 0.03232208 0.0025597482 0.02140709 -0.06082299 -0.015967943 0.0058966866 -0.05873568
-0.014843917 0.100450546 -0.16606182 -0.01039118 0.006514762 0.13229002 -0.094292104 0.09728223
-0.067954294 -0.03665979 -0.017910445 0.17621487 0.028671337 0.01331855 -0.007842565 -0.034425803
-0.014319429 0.5571015 0.0069270995 -0.01362907 -0.0016243379 -0.065576196 0.044826835 -0.22101073
-0.0084016025 -0.093569465 -0.015061458 0.002777504 -0.006347651 -0.08265743 0.086011395 -0.020925684
0.016819777 0.1093371 0.000986829 -0.010389983 0.005091968 0.06660155 -0.074206345 -0.015992312
-0.03739636 0.20600581 -0.60125494 -0.0045069326 0.03797748 0.2571666 -0.15219037 0.29608458
-0.018914431 0.0045285635 0.00052405056 0.0002785661 -0.03246439 0.00067532226 0.0055215824 0.006506323
-0.0867587 -0.015547358 -0.00052019896 0.0004691929 0.051036812 -0.020296298 0.028391076 0.0005038541
-0.05744368 -0.0023807443 -0.001882225 0.0014193854 -0.11370604 -0.0034996588 0.016408293 0.005424291
-0.14460905 -0.028084384 5.132164e-05 -0.0032127353 0.09717898 -0.017720971 0.04109761 0.05707762
-0.048556685 -0.057040904 -0.016195059 -0.01937622 -0.00510573 0.19522338 -0.30154818 -0.21418037
-0.0068546426 0.033254836 -0.10433074 0.0025220523 0.007429162 0.03869539 -0.015474263 0.06208165
0.05534041 -0.020890629 -0.00065081014 0.07097967 -0.04196554 -0.0067431275 0.005550996 -0.02742013
0.0012162775 -0.007835574 -0.00115187 0.00026314077 -0.0035983552 0.0464138 0.04882655 -0.011041004
0.065954275 -0.0075970483 -0.0022622247 0.012007022 0.11993827 0.026826499 0.033178568 -0.018389879
-0.00018075402 0.24774392 -0.1344163 0.00940736 0.011155531 0.1577049 -0.05864473 0.23979034
-0.018684553 0.02904318 -0.010911506 -0.01914955 -0.0036965634 0.21155943 -0.30382434 -0.20364925
0.004593515 -0.0069004716 0.0007168138 -0.1677598 -0.0076079974 0.00044899108 -0.004217053 -0.017778046
-0.064559065 0.003934854 0.0027622115 0.002010021 -0.12369022 0.008092317 0.012754988 7.684759e-05

model/mobilenetv2_0.35_96/block_1_project/Conv2D f4 [8, 1, 1, 48]
00000000: f7a0 28bf 2b51 24bd e330 063f 078c a4c0
00000010: a671 093f f656 ba3f 0ddb a63e a918 b63e
00000020: 75af 203e cb8c 9f3e edb0 0a3e 3c46 8fbe
00000030: 89a1 ac40 afae 581c 5fe3 3a3d 81c9 9f3e
00000040: 7355 389d 8c77 f0be 0995 9dbe 23d9 2a3c
00000050: 6097 8940 e7f3 59be cd5a 84bc 08ae 823e
00000060: 3988 cf3f 90aa ff3f ebf9 353f 6e9f 273f
00000070: 0406 863e 252b 793e 3389 253e c7e2 e1c0
00000080: 927a 143f b202 ad3e 9d98 0bbd 5a26 743c
00000090: 9d4a c5bf 010e 913d 291a 5dbf eb79 eb3f
000000a0: edd6 e53e a328 bcbf 9540 eebe 7f07 843e
000000b0: 8ac6 ff3d 500f b8bd fb3c 6a3e 7694 0d3e
000000c0: c44f 82bf f4ba 5abe 1fb0 91bd 01f7 26be
000000d0: b9db a03f c209 3f3f 48e0 4fbf 466e 0940
000000e0: 9785 133f 57c1 2c3e aacd 5ebf 194e 22bf
000000f0: 9782 aa3e 4c62 e61b fc1e 033f ae25 853f
00000100: 0d9c 4b1b 0182 923f f836 023f b200 aabf
00000110: cfca 393b 048c 193f 22c5 6540 5221 123f
00000120: 7393 49bf e51b 85bd f793 c23f 91ff cf3d
00000130: b266 153f 174f 95bd 01a3 fa3e 8d8b a5be
00000140: f4d5 cd3e 2c86 5fbe d3be 6abe 7db2 15bf
00000150: e3a5 203e 3fbf c3bf 73f2 8a3e d48f ce3d
00000160: 7077 43be 87a5 60be 001c 0fc0 d630 5fbe
00000170: 74d9 69bf ec93 573e 0bd5 aebf 7029 30c0
00000180: 04e5 57c0 ee9f 613f 1615 49bd dc72 1b3f
00000190: 8006 2240 c9e2 25bf 7922 d43f 7f6a b73f
000001a0: 6b18 02bf 0d74 4840 c1cb ef3e 28fc a8be
000001b0: 7b84 2c3e 750f 759d 22fc bb3e 4a10 4140
000001c0: 4c63 7e1d 7618 2d3f 152a e7c0 c918 ad3f
000001d0: 9676 c63c 8abb 393f 43cf a83e ad76 65bf
000001e0: e6a8 e9bf 7e03 b33d fffb 0640 2c7a 913e
000001f0: 2410 003f fe0b db3f f913 a83f 768e 483e
00000200: 20f5 c93e 541e c9be 05b4 1fbf c33d 39bf
00000210: defc 213f 2655 913e f17a 513e ce48 e53c
00000220: a444 0740 9421 ccbe e8c4 d8bf 3490 5db8
00000230: e639 b03f 981e 50c0 adba b23f 08d7 4e3f
00000240: a8fb 9e3d 0cb1 9d3c 026e 20bd c5bf e83e
00000250: 01ed 8cbe 1a25 c63f d682 ad3c e634 26be
00000260: c7ef 6340 ee1e 7e3f 89eb 1bbe ce69 05be
00000270: 65fa b63f e17c 621d cd20 d4bf 9f79 e4be
00000280: 6d72 e21c ad50 2e3c d7cf f4be c82e 833d
00000290: 6495 2dbe cdb8 d23c ecce a63e 18ab 77bf
000002a0: 185d 25bf 3d25 b3be bb73 00bf c3b7 fdbd
000002b0: 1639 e6be 9d9b 3cbe 707a 30bd 51cc f3be
000002c0: 5781 2cc0 d58d 1b40 7b6e 40c0 40f8 01be
000002d0: 87e4 af3e afdc 18bc bb71 323e 0162 dec0
000002e0: c9ab 88bb f542 6e3e 8956 ed3c d0f8 32c0
000002f0: ae70 02be 9084 9bbd 3507 62bd 27ad af3e
00000300: dbed 553c c007 26be 97a5 7840 efe5 d33f
00000310: 0d5b 133e f79a 77bf 0939 aabd 9ebc 21be
00000320: ae39 1b3e ceb8 30be b6ca e7bd dfe1 cebe
00000330: 1dd7 77c0 8709 359c b080 05bf 66e3 423e
00000340: c101 d39c bf11 e43e 8c4b 933e 4f0e cfbb
00000350: 7495 4c40 3877 483e c84c 8d3d e3b8 5bbe
00000360: f200 37bf 3023 c13f 4aa7 80be d239 1040
00000370: e948 a9be 450d 84bd a444 a83b 2d82 9840
00000380: 9fb9 343e 191e 4b3e 5b59 11bd b712 e0bd
00000390: 628b 433f 0ced 0ebf a868 06bf e5f4 59bf
000003a0: 2ce2 28be c016 c5c0 4707 2b3e 719d ff3d
000003b0: 1641 f5bc a98f 12be 7f4f b63b b772 163d
000003c0: 38fb afbe c16d 0840 639a 483e 2b6a c9be
000003d0: 3d3b 263e 7f12 0f40 4e21 a03f 043d 153f
000003e0: d998 77bf 2b20 b63f eb41 ab3e 2127 2840
000003f0: 2c6d 9b3f 69a9 499c a714 c7c0 85d3 77bd
-0.6587061 -0.04011647 0.52418345 -5.142093 0.5368904 1.4557788 0.32588997 0.3556569
0.15691932 0.31162104 0.13544054 -0.27983272 5.3947186 7.169418e-22 0.045626994 0.31208423
-2.4396373e-21 -0.46966207 -0.30777767 0.010427746 4.2997284 -0.21284448 -0.016156578 0.255234
1.6213447 1.9973927 0.7108447 0.65477645 0.26176465 0.24332865 0.16165619 -7.058933
0.5799953 0.3379112 -0.03408109 0.014901722 -1.5413395 0.07082749 -0.8636804 1.8396581
0.44890538 -1.4699901 -0.46533647 0.2578697 0.1248904 -0.08987296 0.22874825 0.13826165
-1.0180593 -0.2136038 -0.071136706 -0.16305162 1.2567054 0.74624264 -0.812016 2.1473556
0.57625717 0.16870628 -0.8703257 -0.6340042 0.33302757 3.811383e-22 0.51219153 1.0402124
1.6842189e-22 1.1445924 0.50865126 -1.3281462 0.0028349643 0.5997927 3.590157 0.5708209
-0.78740615 -0.06499461 1.5201405 0.10156167 0.58359826 -0.07290476 0.48952487 -0.3233303
0.40202296 -0.21828526 -0.22924356 -0.58475477 0.15688281 -1.5292739 0.271381 0.10086027
-0.1908853 -0.21938144 -2.236084 -0.21795973 -0.9134743 0.21052521 -1.3658766 -2.7525291
-3.373353 0.8813466 -0.049092375 0.60722136 2.5316467 -0.6479917 1.657302 1.4329375
-0.5081851 3.1320832 0.4683514 -0.3300488 0.16847412 -3.2433471e-21 0.367158 3.0166192
3.3667955e-21 0.6761545 -7.223887 1.3523189 0.024226468 0.72551787 0.32970628 -0.8963421
-1.8254669 0.087409005 2.1091306 0.28413522 0.5002463 1.7113035 1.3131095 0.19585595
0.39444828 -0.3928095 -0.62384063 -0.72359866 0.6327647 0.28385276 0.20457055 0.027988818
2.1135645 -0.39869368 -1.6935091 -5.2824806e-05 1.3767669 -3.2518673 1.3963219 0.8079686
0.07762843 0.019249462 -0.03916741 0.4545881 -0.2752457 1.5480072 0.021180551 -0.16231117
3.5615098 0.99265945 -0.15226568 -0.13028643 1.4295164 2.9975412e-21 -1.657251 -0.4462404
1.4985004e-21 0.010639352 -0.4781482 0.06405407 -0.16951519 0.025722886 0.32579744 -0.96745443
-0.64595175 -0.34989348 -0.5017659 -0.123885654 -0.44965428 -0.18418737 -0.043085515 -0.4761682
-2.6953943 2.4305317 -3.0067432 -0.12692356 0.3435404 -0.009329959 0.17426197 -6.9494634
-0.004170869 0.2326773 0.028971927 -2.7964363 -0.12738296 -0.07593644 -0.055182654 0.34311792
0.013057197 -0.16213894 3.8851068 1.6554545 0.14390202 -0.9672083 -0.0831166 -0.15794608
0.15158722 -0.17257997 -0.11317961 -0.404067 -3.8725045 -5.990019e-22 -0.52149487 0.19032058
-1.3963262e-21 0.4454479 0.28768575 -0.0063188444 3.196622 0.19576728 0.068994105 -0.21457247
-0.7148582 1.5088863 -0.2512763 2.253529 -0.3306344 -0.064478435 0.0051351357 4.7658906
0.17648934 0.198357 -0.035485607 -0.109410696 0.76384556 -0.55830455 -0.5250344 -0.85139304
-0.16492528 -6.159027 0.16701995 0.124812014 -0.029938262 -0.14312615 0.005563676 0.036730494
-0.34371352 2.1316988 0.19590144 -0.39338812 0.16233535 2.235504 1.2510164 0.5829623
-0.967176 1.4228567 0.3344873 2.6273882 1.2142692 -6.672428e-22 -6.221271 -0.060504455

model/mobilenetv2_0.35_96/block_1_expand/Conv2D f4 [48, 1, 1, 8]
00000000: d500 7d3c 739b f5bd 45c4 3f3d e9af 2abd
00000010: ea40 db3c 4728 85bc 3168 40bd 36e9 ae3c
00000020: 015b 803d 6e73 6e3d bd5f 9ebc 5f48 abbd
00000030: fc72 183c ba6e 30bc ce6f 8fbd b562 e53d
00000040: 2b18 9f3c 8d9a 833b f4fe edbc 116b a33d
00000050: b111 0a3d 5602 a53d 2540 f83c 68b5 713d
00000060: ec66 423d eb91 303d bcaa 44bd 2cf4 983d
00000070: a41c 63bd 7e78 8fbb cd71 b3bb 58ec 073c
00000080: e019 97bc 1120 5fbd abc1 213d f88b a73b
00000090: c165 423b 2edc 853c ac6e c5bc 4999 8abd
000000a0: 4907 4e3c c435 743b b297 b2bc 3f33 db3c
000000b0: 841e d83a 61c0 a1bc e57b cf3c 210b a63d
000000c0: 97a1 253d 7642 57bc 360d b9bd c321 81bd
000000d0: cd90 9f3d 185f 213c a07f 123d 17b7 d3bc
000000e0: 6a0e 9a3e 2833 223d c557 4e3d 72a4 5bbd
000000f0: 10b7 8d3d e0e2 76bc 64e7 4f3e e9ee 10be
00000100: 93f7 7a3c 1184 94bd ccfd 173c b1d9 9c3d
00000110: e333 a73a 9310 933c 5830 11bc 4a1a c0bd
00000120: 9549 013f b969 1cbf 217a 883d 037f 13bc
00000130: 8dbb 7ebd b06d 843d 7de7 14bf 1fc8 d73e
00000140: 483f 17be d8d8 2dbd d8e0 0bbe 6b96 b33c
00000150: bd1e 4fbc 9bcf c23b 819a f3bd 305f 7d3d
00000160: 6db7 a8bd 372c 29be 2bc4 03bd 0191 cdbe
00000170: ecb3 f9be 39c0 04be edd2 383e 81e8 80bd
00000180: a6ed b83b b39d 223b 1844 66bc a215 c83c
00000190: acdc ddbc 3c28 06bc 9679 ac3c cf5b 3c3d
000001a0: caf1 759c 8951 609e e8e1 949e 01fe b09e
000001b0: 58a2 c91e 1432 aa9e 244f a31e 6e27 ed1d
000001c0: b347 2abc d521 80bd a8ac 38bc 8a85 a43c
000001d0: da9e a33d d479 743e 59f5 af3d 4774 9e3d
000001e0: 949d 5f3c f0a1 283a 78b1 b53b 6351 2abd
000001f0: 1d92 b13c 4e13 503c 4d80 95bc d45f c63c
00000200: c311 e69c 3f8d 6b9e 54aa 3b9e 066b f99c
00000210: 6969 941e 3ffe eb9e 81f7 6b9e b6f5 889e
00000220: 6114 443e fa14 9c3e 9a88 cd3f 0700 8d3e
00000230: 24e5 afbe 0ae7 f3bd 8b6f bb3e f626 c13e
00000240: ad57 933d 344c d3bd 390f a73c 578b dc3c
00000250: 6778 86bb f282 873c 6c80 c4bd 060f 1b3b
00000260: 93ab 99bd da03 f4bb d43c 893c a1bd 353d
00000270: 0033 0abd 4856 0cbd 8282 6ebd 65cd 283d
00000280: 8c63 9d3c 5b10 933c eae8 bfbc 3ced 823d
00000290: 0f37 4cbc cdc3 92bd 9fa6 3ebb 48a2 0c3d
000002a0: e8f1 fd3e 5ba9 423e 4375 8f3f ecca a23d
000002b0: 3ec9 00be 84f6 bcbd df64 173f 5bda cb3d
000002c0: 65e7 42bd c03f 28bc d724 9fbd ac19 eb3a
000002d0: d436 423b 3d8c cf3b 8084 7bbd 7054 2b3b
000002e0: 61cf 9dbe 802e c63e 5f71 5fbd 03ed 81bd
000002f0: 7fcb c53c 3aaf 09bd 37e9 c63e f2eb 70be
00000300: 5d6a 543c ed9b efbd 390e e2bd a7b3 3c3e
00000310: b3ca a5bc 6597 05be b0b8 593e 7b80 8d3e
00000320: 3d02 833c 42b7 6a3d 4e9b 383d a9bb 213d
00000330: f9f1 263e 3b4d 233e db51 c7bd db7c 87bd
00000340: fe99 b7be f770 03be 4b7e 0abf d13f 36bc
00000350: fcb5 e63c 3b2c 7c3d efcd c8be 59fe d9b9
00000360: 4b51 843b 9591 e0bd 60fc 04be 5ee5 fa3c
00000370: cfde 35be 5351 093f d918 8e3e ffad 523e
00000380: b83c 8f3a 216a 27bc 78fa 38bc f452 b73c
00000390: e829 583c 7a5d 923d 585b ed3c c5b8 093d
000003a0: caeb 8f3e ee5b bd3d d5a8 cd3e 2a46 bf3b
000003b0: 405d 6abd 02db 3bbd 5c6c 8b3e 9f54 9bbc
000003c0: 0758 4bbe f9d3 a03e 393c 6fbd 6b84 89bd
000003d0: 49b7 c13c 0fd3 5ebc 80f4 7d3e 1cf4 f9bd
000003e0: 67d5 6fbc b16b 05bd e641 e2bb 701f 943a
000003f0: 0e64 313c 4a08 c7bc 4081 303d d367 183d
0.015442093 -0.1199254 0.046818037 -0.041671667 0.026764352 -0.016254557 -0.046974365 0.021351438
0.062673576 0.05821555 -0.019332761 -0.08363413 0.009304758 -0.010768587 -0.07003747 0.112004675
0.019420704 0.0040162266 -0.029052235 0.07979406 0.033708278 0.08057086 0.030304024 0.059010893
0.047461435 0.04310791 -0.048014387 0.07468447 -0.055447236 -0.0043783775 -0.0054762126 0.008296095
-0.018444955 -0.05447394 0.039491337 0.005113121 0.00296627 0.016340341 -0.024100624 -0.06767518
0.012574979 0.0037263492 -0.02180085 0.026757834 0.0016488587 -0.019745054 0.025327632 0.081075914
0.040437307 -0.013138404 -0.09035723 -0.06305268 0.077912904 0.009849332 0.035766244 -0.02584414
0.30089122 0.039599568 0.050376672 -0.053623624 0.06919682 -0.01506874 0.20303112 -0.14153637
0.015317815 -0.07251752 0.0092768185 0.07658709 0.0012756552 0.01795224 -0.008861624 -0.09380014
0.505029 -0.6109882 0.06663919 -0.00900245 -0.06219058 0.06466234 -0.58165723 0.42144868
-0.14770234 -0.042443126 -0.1365999 0.02192231 -0.012641606 0.0059451587 -0.11894704 0.061858356
-0.08238111 -0.16520773 -0.032169502 -0.40149692 -0.48770082 -0.12963952 0.18049212 -0.062943466
0.0056435643 0.0024813234 -0.014054321 0.024424378 -0.027082764 -0.008188304 0.02105407 0.045985993
-8.1376205e-22 -1.1875322e-20 -1.5763542e-20 -1.8739778e-20 2.1348847e-20 -1.8020162e-20 1.7291028e-20 6.2774147e-21
-0.010393071 -0.06256453 -0.011271633 0.020083208 0.07989283 0.23874599 0.08591718 0.07737022
0.013648409 0.0006432822 0.0055448376 -0.041581523 0.021676118 0.012699915 -0.018249655 0.024215616
-1.5224715e-21 -1.24700054e-20 -9.934921e-21 -1.6505103e-21 1.5713706e-20 -2.4986747e-20 -1.2491979e-20 -1.4501184e-20
0.19148399 0.30484754 1.6057312 0.27539083 -0.34354508 -0.119093016 0.36608538 0.37725037
0.07194457 -0.10317269 0.020393 0.026921911 -0.0041037085 0.016541932 -0.09594807 0.0023660078
-0.07503428 -0.007446748 0.016752638 0.044370297 -0.033740044 -0.03426197 -0.05822993 0.041211504
0.019212507 0.017952135 -0.023426492 0.06392905 -0.012464299 -0.07166252 -0.0029091013 0.03433445
0.49598622 0.19009916 1.120766 0.079488605 -0.12576768 -0.092267066 0.5913829 0.099537574
-0.047583956 -0.010269105 -0.077706985 0.0017936728 0.002963473 0.0063338564 -0.06140566 0.0026142858
-0.3082228 0.38707352 -0.05455148 -0.063440345 0.024144886 -0.033614375 0.38849804 -0.23527506
0.012964812 -0.11699662 -0.11037869 0.18427907 -0.020238256 -0.13046034 0.21261859 0.27637085
0.015992278 0.057303675 0.045069985 0.039485607 0.16303243 0.1594743 -0.097324096 -0.06615611
-0.35859674 -0.12836061 -0.5409896 -0.011123613 0.028162949 0.06156562 -0.39219615 -0.0004157897
0.004038011 -0.109652676 -0.12986898 0.030626949 -0.17760776 0.53639716 0.27753332 0.20574187
0.001092813 -0.010218174 -0.011290185 0.022378422 0.013193585 0.071467355 0.02897422 0.033623476
0.2810958 0.0924605 0.4016787 0.0058372216 -0.057217836 -0.04586316 0.2723111 -0.018961249
-0.19857799 0.31411722 -0.058407042 -0.0671471 0.023646967 -0.013600125 0.248003 -0.12204763
-0.014638281 -0.032573406 -0.0069048284 0.0011300873 0.010827078 -0.024295945 0.043092012 0.03720839

model/mobilenetv2_0.35_96/expanded_conv_project/Conv2D f4 [8, 1, 1, 16]
00000000: 252f 679e 4574 edbf ccb1 243e 4b2e 69bd
00000010: 47cb 2841 00d4 ff3c 8e6d b9bd 0938 853d
00000020: 9d60 bebc 4090 29c1 f6f7 f6c0 89c2 b7be
00000030: d886 501e ce5e 2441 910e 4fbe bdd0 d11e
00000040: 787d 371e 46fe 20c0 61d6 12bd 7174 e940
00000050: 1cbe c640 1ca3 973f 7999 f83f dea2 113f
00000060: 3f25 9b3c 164d edbe d46e 2d41 cf63 6bc0
00000070: 83cb c31e e71e 2140 093c 85bf 5fe9 20a0
00000080: 6ce4 841d e8ad 763d b6e6 06be 2875 97bf
00000090: 1e9a bec0 c80b c43e e8ae 873f 73e1 4b3e
000000a0: 3686 d63c c838 913e 021c e4bf c14b 0b3e
000000b0: e4c3 2f1e 9b66 4f41 0313 52bf d76c 8e9d
000000c0: b983 239e db8b 07bf 1d79 72bf edf4 c0c0
000000d0: 4362 7540 9e75 923f 1491 5340 a956 4a3f
000000e0: d90a 94bc 2ee7 3940 45c5 31bd aa5e ed3f
000000f0: 99d2 f59d 5379 3dbd d904 673f e317 f29e
00000100: d40b 3f9c 3db2 2a40 cdfe b5bf c434 ed3f
00000110: 2409 3ec0 3651 d63f 674b da40 da6c 083f
00000120: f4ee c73a 4317 50c0 e300 6f3f 98fc fcbe
00000130: 6e9f 869e 29e0 adbe 1870 573f db10 081f
00000140: aafc fe9d d017 c8bf ed23 8cbf d78f a1bc
00000150: 9e0a 0cc0 8426 0fc0 22e9 95bf 6dbc c93f
00000160: 8a09 03bc 4be8 653f 54ea dcbe e1af 87c0
00000170: 71d5 cd9e 0210 f3be 6571 4241 d49f 0da0
00000180: 443c 169e 95bb 863f ad4e 32be bc9f 993d
00000190: 8e18 3b40 dad6 a2bf 0eb7 b0bf 99d3 e7be
000001a0: 44df e43c 276b c6c0 4fda d340 b842 6440
000001b0: 6fd6 bd1d a2a7 ec40 c76c 6340 a2a1 181f
000001c0: 7dda 9d1d 5a43 133f e94b 28bf f5ca aa40
000001d0: d01b 983e f41c e9bd 5966 383f 4112 c53e
000001e0: e70f 3e3a 26a9 3640 66cb 0cc0 f5b5 4b40
000001f0: 9970 661d 3f76 a3be 996a 0440 7ebe 0c9f
-1.22387874e-20 -1.8551108 0.16083449 -0.056928914 10.549628 0.03122902 -0.09054099 0.065048285
-0.023239428 -10.597717 -7.7177687 -0.35890606 1.1039313e-20 10.273146 -0.202204 2.2215068e-20
9.713886e-21 -2.5155196 -0.03584898 7.295464 6.2107067 1.1846652 1.9421836 0.5688914
0.018938659 -0.46347874 10.839558 -3.6779668 2.0730599e-20 2.5175111 -1.0408946 -1.3629743e-19
3.517629e-21 0.060224444 -0.13173947 -1.1832628 -5.956313 0.38290238 1.0600252 0.19910221
0.026187044 0.28363633 -1.7821047 0.13603117 9.304932e-21 12.96255 -0.8206026 -3.7699625e-21
-8.656388e-21 -0.5294778 -0.94716054 -6.029898 3.8341224 1.1442144 3.3057299 0.7903848
-0.018071579 2.904735 -0.04340102 1.8544514 -6.5068713e-21 -0.046258282 0.9024177 -2.5632626e-20
-6.3211886e-22 2.6671288 -1.4218384 1.8531728 -2.969308 1.6743534 6.8217044 0.53291094
0.0015253709 -3.2514198 0.9336073 -0.49411464 -1.425374e-20 -0.33960083 0.84155416 2.8813063e-20
-6.749449e-21 -1.5632267 -1.0948464 -0.019721908 -2.188148 -2.2367258 -1.1711771 1.5760628
-0.00799788 0.89807576 -0.43147528 -4.2402196 -2.1793497e-20 -0.4747315 12.152684 -1.1996047e-19
-7.9533965e-21 1.0525995 -0.17412825 0.0750117 2.9233737 -1.2721817 -1.3805864 -0.45278624
0.027938493 -6.20058 6.620399 3.5665722 5.0249603e-21 7.395463 3.5535142 3.232095e-20
4.1783466e-21 0.57524645 -0.6574083 5.337275 0.2970872 -0.113824755 0.7203117 0.3849049
0.00072502944 2.854074 -2.1999145 3.1829808 3.0498458e-21 -0.31926152 2.0690062 -2.9803725e-20

model/mobilenetv2_0.35_96/Conv1/Conv2D f4 [16, 3, 3, 3]
00000000: d233 661f d46c 2f1f 0313 d51e b26e b31e
00000010: c9dd 3c1e bd26 371d 61f7 881e 2cdc 821e
00000020: 0953 291e b174 361f 8f7c e41e 33db 831e
00000030: 17ee c11e aefb 7d1e e5b2 5e1d 7190 c31e
00000040: bb3b aa1e daae a31e 4840 131f b47e ab1c
00000050: 8bf2 239e 2f42 601e 6cc1 419e 1c4e d79e
00000060: 24ce a51e 8f17 eb1d edf0 5b1d a126 6a3f
00000070: 7d56 cfbd 0897 123f 084a d1bd e894 f3be
00000080: 90ca 8b3e 15b9 22c0 daef 1ac0 6936 aebf
00000090: e6de 173d 3f8c fbbd be9a 3abd b976 ddbe
000000a0: 5cf1 223d f1ba f6bd ccef 7f3c 8c01 23bf
000000b0: baff b03d fd31 a3bd 1b06 a33e 3680 51bd
000000c0: 01c8 c7bd 09c4 fa3d 9b1c 83bd 4f68 473f
000000d0: 6b0a c4be ca1b 703e 7b48 1d3f 6d3a 00be
000000e0: 27bd fdbd 19af ca3f e8b6 1540 0e94 a73c
000000f0: 4cbb 563f 85b8 49bf b81f 1f3e c48c 583e
00000100: c774 813e 47e1 9dbc e219 b93f 4f46 2640
00000110: b6e5 10bf 72e7 d73e 8935 c7bd 1653 03be
00000120: aef2 813f bc01 acbf 2baa d53e dec6 c43f
00000130: 3aae 61bf 8f42 d7be 06e3 2f3f bf7e 8dbf
00000140: 98d0 9d3e cc22 fb3c 355b 173e 248a 863c
00000150: 1888 173e 327d d63e f62f c33d f235 c13b
00000160: e270 dd3c 8515 84bc f2db c03d 23a2 253e
00000170: 1b81 e53c d234 9a3e a719 103f b01b f53d
00000180: 3f07 5fbd 5f30 a1bd 7c1d 9c3c 92c1 dc3c
00000190: 3a96 813c dc90 aa3c fb17 f63d 1ea3 f13d
000001a0: 671a 203d 352c d4b9 d53a 55bc e907 833c
000001b0: afcb 5e3d d1b8 c93d e09c 2fbc 56ea ba3c
000001c0: 638b e43d ec1f 4fbc fbcf a8bc 40c7 3e3c
000001d0: 6e18 72bb 8885 803d e2ff fe3d a505 8b3d
000001e0: b8e3 393d 73d3 273e a26a 2e3d d49a 243d
000001f0: 7d52 8c3d fae4 a8bc 5b17 943d aef4 d03d
00000200: f8e0 363d 998e 733d bed8 203e d01f 873c
00000210: 773e 02bd 000c e03c c860 be3c 70bf 303e
00000220: 105a 1f3d 342c 1bc0 47b7 6ebd 1e27 be3c
00000230: eea7 06c0 725f dcbd 18c1 123f f9f4 0dbf
00000240: 3f3d dd3d 3b84 5abf bd40 25c0 7327 1dbc
00000250: 4797 66bf c176 14c0 32ec 8ebc 719d 873e
00000260: ba84 f0be 98b2 00bd f33e 3d3e ec5d afbe
00000270: 51f7 733d 8c68 f9bc 4099 5abe 04e8 1e3d
00000280: 84b4 8e3e 80a4 53be 3e31 c63d 8268 79be
00000290: a929 083e 9003 3d3e 1a7e acbe 7409 1e3e
000002a0: a862 1b3d 9c97 9bbd f3f9 0f3d 4af2 123e
000002b0: 2b71 bdbe 0d79 753e 3931 7f3e f9d5 fbbe
000002c0: 17bd 8e3e 920a fa3c 693e dcbd 5459 883d
000002d0: 2054 a63d 43af 07be bb53 583d 2e69 693d
000002e0: e42d 2dbe ebfc cf3d f7d4 3bbd 6f5f 033d
000002f0: 3c45 31ba bf7a 65bf 04ed f93e a78e f73d
00000300: 42e0 48c0 06ed 91bf 0b8e a03c f646 34bf
00000310: b985 2d3f 2157 483d 5f18 c1be b8a9 60be
00000320: a9dc f63c 9ba0 6bc0 0fc1 2cc0 8265 5abe
00000330: d9f4 3fbe 6259 17be 77c3 163e 9187 2cbf
00000340: 31a8 613f f7b7 7dbe 6908 c2be 9dea 9c3e
00000350: 43c1 13bc ed04 20bf 6b17 3a3f a7bc 97bd
00000360: 1338 103d 3c08 273d a974 c03c 9878 093d
00000370: 8316 243d 094a b13c f508 0b3d 0190 1c3d
00000380: 10ec a83c ff22 113d cc60 1d3d 26ae b03c
00000390: 9d01 013d 4cc4 123d 629e 993c 186f 083d
000003a0: 733e 143d d793 963c 9d48 083d 9ef0 153d
000003b0: 909f aa3c 7787 013d 9096 163d 34e5 9e3c
000003c0: b27a 063d ee9e 123d 7a43 993c 98e6 eabd
000003d0: 0032 babc 86a2 2e3d a446 8fbd fb89 08bd
000003e0: e373 3eba 9b3e ae3c ea25 b43c ca88 4abd
000003f0: 6e70 003f 9172 183f efb1 3cbd d8b1 c83e
4.874726e-20 3.7147712e-20 2.2560115e-20 1.8998145e-20 9.998501e-21 2.4239876e-21 1.4501874e-20 1.3855346e-20
8.963957e-21 3.8636524e-20 2.4191955e-20 1.3960823e-20 2.0533142e-20 1.3445755e-20 2.9473942e-21 2.0706168e-20
1.8024154e-20 1.7330613e-20 3.1181633e-20 1.1348583e-21 -8.679305e-21 1.1872148e-20 -1.0257334e-20 -2.2796316e-20
1.7555312e-20 6.222834e-21 2.9108964e-21 0.91465193 -0.10123918 0.57261705 -0.102191985 -0.47574544
0.2730298 -2.5425465 -2.4208894 -1.3610355 0.037077807 -0.12282609 -0.04555773 -0.4325464
0.03978096 -0.12047375 0.015621137 -0.63674235 0.08642526 -0.07968519 0.31840596 -0.051147662
-0.097549446 0.12244422 -0.064019404 0.7789354 -0.38289198 0.234481 0.6143872 -0.12522288
-0.123895936 1.5834686 2.3392887 0.02045634 0.8387954 -0.7879718 0.15539443 0.21147448
0.25284407 -0.01927246 1.4461024 2.5980413 -0.5660051 0.42168766 -0.09727008 -0.12824664
1.0152185 -1.3438029 0.4173139 1.537319 -0.88156474 -0.42042968 0.68705785 -1.1054305
0.30823207 0.03065624 0.14780886 0.016423292 0.1479801 0.4189239 0.09530632 0.0058963234
0.027031366 -0.016123543 0.09416951 0.16175131 0.028015664 0.30118424 0.5628914 0.119681716
-0.05445027 -0.07870554 0.019057028 0.02694777 0.015818704 0.020821027 0.12016293 0.1179869
0.03908768 -0.00040468728 -0.013014515 0.015994983 0.054393467 0.09849704 -0.010718554 0.022816818
0.111593984 -0.012641888 -0.020606985 0.011644185 -0.003694083 0.06275469 0.124511495 0.06788186
0.045383185 0.16389255 0.04258216 0.040186718 0.06851671 -0.020616997 0.07231017 0.10202919
0.04464814 0.059462164 0.1570768 0.016494662 -0.031797852 0.027349472 0.023239508 0.17260528
0.03890425 -2.424573 -0.058280256 0.023212012 -2.1039996 -0.10760392 0.5732589 -0.55451924
0.108026974 -0.8535802 -2.5820763 -0.009591925 -0.9007458 -2.3197482 -0.017446611 0.26487306
-0.46976262 -0.03142032 0.18481044 -0.34251344 0.05956203 -0.03044536 -0.21347523 0.038795486
0.27872097 -0.2066822 0.09677361 -0.24356273 0.13297142 0.1845839 -0.33689958 0.15433294
0.037935883 -0.075972766 0.03515048 0.14350238 -0.37000403 0.23971958 0.2492112 -0.49186686
0.2787864 0.030522618 -0.10754091 0.06657663 0.08121514 -0.13250451 0.052814227 0.056985073
-0.16912037 0.10155662 -0.045857396 0.032073434 -0.0006762331 -0.8964042 0.4881364 0.12087756
-3.1386876 -1.1400459 0.019598981 -0.7042078 0.6778217 0.048911218 -0.37713906 -0.21939743
0.030134516 -3.6816776 -2.6992834 -0.21327785 -0.18745746 -0.1478019 0.14723001 -0.6739436
0.88147265 -0.24777208 -0.3789704 0.30647746 -0.009018245 -0.62507516 0.72691983 -0.074090295
0.035209727 0.040779337 0.023493128 0.033562273 0.04006053 0.021641748 0.03394409 0.03822327
0.020620376 0.035433766 0.03842239 0.021567415 0.03149568 0.035831735 0.01875228 0.033309072
0.03619237 0.018381042 0.033272374 0.036606424 0.020828038 0.03162333 0.03676468 0.019396402
0.032831855 0.0357961 0.018708933 -0.114697635 -0.02272892 0.042635463 -0.069958955 -0.033334713
-0.0007265193 0.021270087 0.021990735 -0.04944686 0.50171554 0.59549814 -0.04606813 0.39198184

model/mobilenetv2_0.35_96/block_16_project_BN/FusedBatchNormV3 f4 [112]
00000000: 68f2 4ec1 790a 99bf ecc2 58c0 f299 8140
00000010: 6671 dc40 8484 0bbf 6b45 eebf 0656 0c40
00000020: ee99 de40 543b 51bf a34b bac0 f12a 3240
00000030: adfb c8c0 72f7 fe40 2a13 99c0 f9df 2cc0
00000040: c74b 24c0 e23c 823f 5dad c4bf a749 81c0
00000050: 870e c540 efe0 4f40 4556 a040 91ce c8bf
00000060: 12d6 483f 96fb 42c1 faa4 2a3e 760d d1c0
00000070: 3cd9 043f 7f9c bb3e 5cd1 18c1 6c44 5c40
00000080: c730 39c1 437a 7ec0 d470 2fc0 b525 82c0
00000090: 2235 0abf fcf5 91c0 365a 78c0 96f4 2bbf
000000a0: c395 e23f a3dd 5cc0 7cfe 73c1 f1b5 92c0
000000b0: 54f2 5f41 83fc d640 7055 cf40 9aaa 01c0
000000c0: 5aa7 1540 3ce1 2ec0 ff69 9c40 d40c be3f
000000d0: a9d2 0c41 cc06 b9c0 4c0e 21bf 4eb3 6740
000000e0: 18d1 bc3f dc8f ff40 08f2 84c0 74d9 e83f
000000f0: 2b0d 25c1 c66b e3c0 1916 d3c0 bcc7 b140
00000100: 6da0 da3e 7600 90c0 4438 9840 1700 7cbe
00000110: 4a23 dd40 fbaf 8440 e51d 363e fca7 cf3e
00000120: b5d7 e43f fd3e 4d40 b6b3 7fbf ef03 00c1
00000130: 140b 1f41 f437 2d40 851e f040 f2b8 a13f
00000140: f9bf 4e41 c561 8b3d 84c3 80c0 9cf3 1f40
00000150: d3a3 b0c0 8933 a5c0 3009 dec0 6d33 883e
00000160: d3c9 4041 aba2 853f 412e e340 3b60 59c1
00000170: 4145 d73f 49ff a5bf f7c7 083e c76d 0e40
00000180: 87ea c1c0 a55f 2741 4ed0 2441 59c7 25c0
00000190: 78d8 363d 3554 f0c0 42da 17c0 cd9c 6f3e
000001a0: bd6d ac40 eb9d f1c0 6ac3 c33e 0462 0740
000001b0: 7bc2 ef40 7121 5b41 951a 9cbf 7af5 613f
-12.934181 -1.1956321 -3.386897 4.050042 6.8888426 -0.5449908 -1.8614935 2.1927505
6.9562902 -0.8173115 -5.821733 2.783871 -6.280722 7.9677057 -4.7835894 -2.7011702
-2.567125 1.017483 -1.5365406 -4.040241 6.1580234 3.2481039 5.010531 -1.5688039
0.78451645 -12.186422 0.16664496 -6.532893 0.51893973 0.36642835 -9.551113 3.4416761
-11.574409 -3.9762123 -2.7412615 -4.067103 -0.53987324 -4.5612774 -3.880506 -0.67170084
1.7701954 -3.4510276 -15.24963 -4.5847096 13.996662 6.718324 6.4791794 -2.0260377
2.3383393 -2.7324972 4.887939 1.4847665 8.801431 -5.7820797 -0.6291244 3.620319
1.475131 7.986311 -4.154545 1.8191361 -10.315715 -7.106906 -6.5964475 5.5556316
0.4270052 -4.5000563 4.7568684 -0.2460941 6.9105577 4.146482 0.17784841 0.4055785
1.7878329 3.2069695 -0.9988359 -8.00096 9.940205 2.70654 7.5037255 1.2634566
12.921868 0.068057574 -4.0238667 2.4992437 -5.519998 -5.162541 -6.9386215 0.26601735
12.0492735 1.0440267 7.099396 -13.585994 1.681801 -1.2968532 0.1335753 2.2254503
-6.059879 10.460851 10.300856 -2.5902922 0.044640034 -7.510279 -2.3726964 0.23399659
5.388396 -7.550527 0.38235027 2.1153574 7.4924903 13.695664 -1.2195612 0.8826519
